localization/cam2_external_parameters_2.npz (npz, 410 bytes, 1 tensors)

T_world_camera f8 [4, 4]
00000000: 1d41 5e79 c4f4 ef3f e723 4669 5292 803f
00000010: 1994 1a2e 0c7b aa3f 145b 73bb 0324 cb3f
00000020: 068e c60c b7df 813f 9b20 0814 17ff efbf
00000030: 0b8b 7f44 eabd 88bf 2c38 a2ba e63b d33f
00000040: c15f 6657 7b6d aa3f fdb4 b1ec e2a1 893f
00000050: eedf 8cf8 6ff4 efbf c9cc fcce da59 e63f
00000060: 0000 0000 0000 0000 0000 0000 0000 0000
00000070: 0000 0000 0000 0000 0000 0000 0000 f03f
0.9986288423988615 0.008091586911875793 0.05172002852240371 0.2120365777288603 0.008727483823185455 -0.999888934254176 -0.01208098432102169 0.30053108430809305
0.05161652986424726 0.01251580509980465 -0.9985885481355561 0.6984685938572507 0.0 0.0 0.0 1.0
