localization/cam2_external_parameters_2.npz (npz, 410 bytes, 1 tensors)

T_world_camera f8 [4, 4]
00000000: 980e ad22 84ed ef3f 1d3a c0ed a8ad 76bf
00000010: 3427 dbef fe20 b13f 4251 e5c1 5b35 cd3f
00000020: 4f9e 74a4 4c16 71bf 0036 2702 34fe efbf
00000030: 2600 6405 3904 95bf b0e7 c301 f696 39bf
00000040: b7a1 2e31 7b27 b13f 6275 9192 e9ae 943f
00000050: 7b61 c59e e9eb efbf 34e0 0d76 3f81 e33f
00000060: 0000 0000 0000 0000 0000 0000 0000 0000
00000070: 0000 0000 0000 0000 0000 0000 0000 f03f
0.9977436711564733 -0.005536708715239172 0.0669097266756154 0.22819086997572852 -0.004171656975166706 -0.999780658917814 -0.020523920969026353 -0.0003904677012226366
0.0670086855958577 0.02019848782616885 -0.9975479222294291 0.6095273309465541 0.0 0.0 0.0 1.0
