localization/cam2_external_parameters_0424.npz (npz, 410 bytes, 1 tensors)

T_world_camera f8 [4, 4]
000000 04 0f 60 d5 38 fb ef 3f 83 21 8f 68 fe 6a 78 3f
       0.9994167487606949 0.005961412222810106
000010 3a 1f 59 69 43 37 a1 3f a8 75 8c a6 30 87 cd 3f
       0.0336247507189555 0.23068817264804165
000020 d9 12 69 ae fa e4 7c 3f e8 79 d0 6a 79 fb ef bf
       0.007054309104721234 -0.9994475446908924
000030 9e b3 c3 06 00 a1 a0 bf 0f 8e 69 70 91 99 d1 bf
       -0.03247833330701798 -0.27499805429235463
000040 b4 e9 2b 66 73 1b a1 3f 62 64 98 7e 9b bd a0 3f
       0.03341255781375044 0.032696589664006806
000050 5d 0a 8f 1e 0b f7 ef bf 87 a0 72 d4 2e 42 e6 3f
       -0.9989066693163512 0.6955789708490706
000060 00 00 00 00 00 00 00 00 00 00 00 00 00 00 00 00
       0.0 0.0
000070 00 00 00 00 00 00 00 00 00 00 00 00 00 00 f0 3f
       0.0 1.0
