localization/cam2_external_parameters.npz (npz, 410 bytes, 1 tensors)

T_world_camera f8 [4, 4]
00000000: 1255 157e d89a cb3f fef6 8f19 9261 ec3f
00000010: 373b 6723 0125 dabf f979 ffbd 804d f13f
00000020: 977c 7599 1ac8 ee3f 034b cab4 4afc bebf
00000030: 5c90 ff83 a05d cf3f 28c1 173f 06a5 583f
00000040: 3a70 6e15 5b7d c53f 7461 adda 0688 dcbf
00000050: 5d1e 01d7 c822 ecbf 8960 d251 68f6 ec3f
00000060: 0000 0000 0000 0000 0000 0000 0000 0000
00000070: 0000 0000 0000 0000 0000 0000 0000 f03f
0.2156630149499184 0.8869104861512083 -0.4085085721716725 1.0814216062350381 0.9619267461056492 -0.12103716768096366 0.2450447697184498 0.0015041886330174423
0.1678880552907474 -0.4458024154205511 -0.8792461585334866 0.905079040344405 0.0 0.0 0.0 1.0
