localization/cam2_external_parameters_0415.npz (npz, 410 bytes, 1 tensors)

T_world_camera f8 [4, 4]
0	0x3feff4c4795e4119	0.9986288423988611
1	0x3f809252694624e6	0.008091586911876236
2	0x3faa7b0c2e1a94c2	0.051720028522404884
3	0x3fcb2403bb735af0	0.2120365777288593
4	0x3f81dfb70cc68f5c	0.008727483823186048
5	0xbfefff1714082097	-0.9998889342541756
6	0xbf88bdea447f90f2	-0.01208098432102431
7	0xbfd31a6345a3af69	-0.298485582358572
8	0x3faa6d7b57666066	0.0516165298642484
9	0x3f89a1e2ecb1baf8	0.012515805099807306
10	0xbfeff46ff88cdfe9	-0.9985885481355555
11	0x3fe659dacefcccc3	0.69846859385725
12	0x0000000000000000	0.0
13	0x0000000000000000	0.0
14	0x0000000000000000	0.0
15	0x3ff0000000000000	1.0
