localization/camera_external_parameters.npz (npz, 410 bytes, 1 tensors)

T_world_camera f8 [4, 4]
00000000: 145c 7d1c 9b8d ef3f 6001 86c7 2e2a bf3f
00000010: d654 2008 4817 bd3f 71b9 dcab e9d3 e13f
00000020: 1daa d3cc af46 c03f 6a70 c912 51b6 efbf
00000030: 1845 1036 3f5a a5bf a75d f843 2041 d9bf
00000040: f8d3 2cb7 9287 bb3f 3e20 9fc4 dd73 ac3f
00000050: 9274 c40d c3c3 efbf 2dbf 387b 1710 f33f
00000060: 0000 0000 0000 0000 0000 0000 0000 0000
00000070: 0000 0000 0000 0000 0000 0000 0000 f03f
0.9860358768881974 0.12173740740945993 0.1136364955749117 0.5571182591136631 0.1271571874743395 -0.9910054556780896 -0.041704154347948996 -0.3945999778529434
0.10753743145035333 0.05557148957410661 -0.9926467198271374 1.1914286435457584 0.0 0.0 0.0 1.0
