localization/camera_external_parameters.npz (npz, 410 bytes, 1 tensors)

T_world_camera f8 [4, 4]
0.05601798684262564 0.9415574704395352 -0.3321618807292667 0.45989835274860436 0.9975586185048435 -0.0666753570195923 -0.02076534163018531 0.0016701816070212906
-0.041698774524053135 -0.3301877142260355 -0.9429937887268285 0.5906401800055319 0.0 0.0 0.0 1.0
00000000: c623 f4ba 63ae ac3f 0bf4 da21 3d21 ee3f
00000010: 8371 ade7 2342 d5bf 9e87 2280 f96e dd3f
00000020: a047 4a0d 00ec ef3f 6b28 d9dd a211 b1bf
00000030: e784 c47c 8243 95bf 90b8 5ad8 3f5d 5b3f
00000040: 8169 bab1 8a59 a5bf 8513 89a6 cb21 d5bf
00000050: 2a36 5d4f 012d eebf 5879 1a3c 86e6 e23f
00000060: 0000 0000 0000 0000 0000 0000 0000 0000
00000070: 0000 0000 0000 0000 0000 0000 0000 f03f
